mlp_r.onnx (onnx, 6650 bytes, 3 tensors)

coefficient f4 [13, 100]
00000000: bf5e 60c1 46bd 5e41 b45c 5441 e0ee 5f41
00000010: 3d94 62c1 15a8 d9bb 21a4 5fc1 4440 7941
00000020: 1e8a 49c1 bee5 5e41 7398 69c1 7d16 64c1
00000030: ee38 68c1 6b33 5cc1 fec6 68c1 af05 5f41
00000040: a85a 6c41 9569 5041 0000 0000 8b9a 7741
00000050: acbc 5ec1 fa37 bfbc 7f68 62c1 ee40 4e41
00000060: 8a56 65c1 52c5 5141 8705 6a41 6f7b 6e41
00000070: d5ad 973c 0000 0080 138b 3f41 e11e 4ac1
00000080: fb90 4bbd 5d09 6d41 7f52 4841 2198 6141
00000090: f64a 4641 0000 0000 a663 62c1 1d46 6141
000000a0: 0000 0000 712c 4b41 0000 0000 0000 0000
000000b0: 7b5f 96bc 0000 0000 c375 4c41 1cff 7cbc
000000c0: 2786 a7bc e173 eabd 0000 0080 494a 4741
000000d0: 0cf9 67c1 fd75 c3bc 0000 0080 741c 02bd
000000e0: 159e 3a3e 53f4 9abb 38b4 9539 3dbf 5e41
000000f0: 4713 47c1 bb33 4ac1 64b7 7141 0000 0000
00000100: 3d92 5e41 c825 69c1 873b 52c1 7b6f 79c1
00000110: 31bb 4fa5 b2b7 6541 20c1 843d 3a34 243e
00000120: 10a4 5041 c4b9 d7bc 0000 0000 26f3 5f41
00000130: aec9 4dc1 95e9 7041 db59 61bc 80d4 64c1
00000140: 3df5 6241 5bd2 97bc 61ff 5fc1 0000 0080
00000150: c9a7 4d41 a290 6fc1 d462 7941 1c80 6441
00000160: 7b38 5741 a0a1 4a41 f874 5c41 285e 47c1
00000170: 2d9e 5ec1 1753 493e 1019 5841 0e34 4ec1
00000180: ee06 60c1 2732 60c1 9412 b1bc 28a0 10bc
00000190: 39ec d13f bec5 b5bf c9be c2bf b6c6 d8bf
000001a0: fe3f e33f 14f4 80bc 53d6 0740 b3bc ca3e
000001b0: cc8c bc3e 907d afbf 4580 bc3f 6f66 553f
000001c0: 566c b93f a0d2 453f 8233 bb3f 94b8 b7bf
000001d0: 3547 1dc0 06f4 83bf 0000 0000 100e 02c0
000001e0: f35a d13f 989b b9bc cbb1 e33f ca1f 12c0
000001f0: d06c ca3f 1162 e1be 492a f9bf cfdc d2bf
00000200: 59ba 8ebc 0000 0080 fae5 c9be 8c9c bf3e
00000210: 1ea8 00bc e7c4 10c0 fd93 bdbe 828e 2fbf
00000220: 12af 97bf 0000 0000 6d51 e93f 51eb e6bf
00000230: 0000 0080 6320 ebbf 0000 0080 0000 0000
00000240: 920d 89bc 0000 0000 af70 023e ec47 5cbe
00000250: 521d b1bc fc2f ca3d 0000 0080 a11f 27be
00000260: 9678 cf3f 26fc c1bc 0000 0000 d91c 02bd
00000270: 5758 83bd 19d2 00bc 089f a0bc ee4b 69be
00000280: fe51 a43e 2cef ee3f f372 e7bf 0000 0000
00000290: 71dc b3bf 4853 bd3f 6794 263f 26ba b53f
000002a0: 066e e493 1ce1 aebe 660f 65be f7f0 eb3d
000002b0: dd32 313f 3b34 d9bc 0000 0080 2844 a6bf
000002c0: 2ed7 723f ea7f e8bf a7bb aa3d ea6f e03f
000002d0: 0ec8 ddbf a9f6 1cbe fa25 cd3f 0000 0080
000002e0: 4322 3fbf 075e de3f 0c8f 36c0 376a 8bbf
000002f0: 65a0 85bd 461c 1bbe 2fc4 bfbf a9e7 b93e
00000300: 5cbe c63f c67e 993c 27f7 403f 006f f93f
00000310: a1a1 cb3f 512e 963f 04c7 c1bc bb77 5dbd
00000320: 2f11 0ec0 8010 0d40 eb32 e13f 377c 0340
00000330: 47f1 90c0 f6b0 ccbc 928a 01c0 7e27 2140
00000340: 5302 c7bf 10d4 1e40 f6fe 0ec0 c6a6 62c0
00000350: 7941 47c0 b8b7 e4bf e3ae 03c0 e21f de3f
00000360: dac3 e83f 92d0 dc3f 0000 0000 cea8 4c40
00000370: 81b6 00c0 aa48 b9bc 2cbb 29c0 0cd3 0740
00000380: 4ec8 26c0 e779 e03f 07f8 0040 5937 2f40
00000390: b773 d23c 0000 0080 401c 0240 dd94 cfbf
000003a0: 0c6d bbbd cd43 0a40 1edf 3140 5021 3040
000003b0: c9d5 1740 0000 0000 120e 5ac0 58a2 0a40
000003c0: 0000 0000 92da 1340 0000 0000 0000 0000
000003d0: 9a3d 62bc 0000 0080 4408 ed3f 6cbc f33d
000003e0: 8f0b a6bc 6f6b 5cbe 0000 0080 7701 bc3f
000003f0: e92f 23c0 a085 c3bc 0000 0080 db1c 02bd
-14.023131 13.921209 13.272633 13.995819 -14.161191 -0.0066423514 -13.977571 15.57819
-12.59622 13.931089 -14.599719 -14.25549 -14.513899 -13.762553 -14.548582 13.938888
14.772133 13.025777 0.0 15.47523 -13.921062 -0.023342121 -14.150512 12.890852
-14.333628 13.110674 14.626349 14.905135 0.018515507 -0.0 11.971454 -12.632539
-0.04969881 14.814786 12.520141 14.099641 12.393301 0.0 -14.149328 14.0796175
0.0 12.69835 0.0 0.0 -0.018356076 0.0 12.77875 -0.015441682
-0.020449711 -0.114478834 -0.0 12.455636 -14.498302 -0.023859972 -0.0 -0.031765416
0.18224366 -0.0047288327 0.00028553768 13.921689 -12.442206 -12.6376295 15.107273 0.0
13.910703 -14.571724 -13.139533 -15.589717 -1.8017811e-16 14.3573475 0.06482148 0.16035548
13.040054 -0.026333697 0.0 13.996862 -12.861738 15.057027 -0.013754333 -14.30188
14.184873 -0.018532922 -13.999848 -0.0 12.853463 -14.972811 15.586628 14.281277
13.451289 12.664459 13.778557 -12.460487 -13.913617 0.19660603 13.506119 -12.887709
-14.001692 -14.012244 -0.021615304 -0.008827247 1.6400214 -1.4200971 -1.5214473 -1.6935642
1.7753904 -0.015741386 2.1224563 0.3959709 0.3682617 -1.3710194 1.4726645 0.83359426
1.4486187 0.77274513 1.4625094 -1.4353204 -2.4574711 -1.0308845 0.0 -2.0321083
1.635588 -0.0226572 1.7788633 -2.2831903 1.5814457 -0.4402013 -1.946603 -1.6473635
-0.017422842 -0.0 -0.3943327 0.37424123 -0.007852582 -2.262018 -0.3702697 -0.68576825
-1.1850302 0.0 1.8227974 -1.8040563 -0.0 -1.8369259 -0.0 0.0
-0.016730104 0.0 0.12738298 -0.21511811 -0.021620426 0.098724335 -0.0 -0.16320659
1.6208675 -0.023679804 0.0 -0.031765793 -0.06413334 -0.007862591 -0.019607082 -0.22782871
0.32093805 1.866674 -1.8081955 0.0 -1.4051648 1.479104 0.65070194 1.4197433
-5.7663783e-27 -0.3415612 -0.22369155 0.1152057 0.69218236 -0.026514163 -0.0 -1.298955
0.9485959 -1.8164036 0.08336573 1.7534153 -1.7326677 -0.15328468 1.6027215 -0.0
-0.74661654 1.7372445 -2.852481 -1.0891789 -0.065247335 -0.15147504 -1.4981745 0.36309555
1.5526843 0.018737208 0.75377125 1.9487 1.59087 1.1732885 -0.023654468 -0.054069262
-2.2197988 2.204132 1.7593664 2.0544565 -4.529453 -0.024986725 -2.0240827 2.5180354
-1.5547584 2.4816933 -2.2343116 -3.541429 -3.1133711 -1.7868567 -2.0575492 1.735348
1.8184769 1.7251151 0.0 3.197803 -2.0111392 -0.022617657 -2.652049 2.1222563
-2.6059756 1.7537202 2.0151384 2.7377532 0.025689943 -0.0 2.0329742 -1.6217304
-0.091516584 2.1603882 2.779243 2.7520332 2.3724234 0.0 -3.4071088 2.1661587
0.0 2.3102155 0.0 0.0 -0.013808632 -0.0 1.8518147 0.11901173
-0.020269183 -0.21525358 -0.0 1.4687947 -2.5497992 -0.023867428 -0.0 -0.0317658

intercepts f4 [1, 100]
00000000: 52ce 7b3d cd79 5d3e 4742 453e 29f6 a03e
00000010: ed09 39be cdb6 a03d ee24 6c3d 37e7 133f
00000020: 91a7 21be 3497 8d3e 2221 7cbe ce34 81be
00000030: 8623 30be c0d9 3fbe 8c89 85be e959 f93d
00000040: c81c 1f3e b9ab 9d3e 3865 03be 5e65 d23d
00000050: 1508 e9bd 2cf6 ef3d 6289 963c c589 74bd
00000060: 7609 8bbb 01cf d03e dd84 6e3e ba75 c03e
00000070: b806 21be 0d2d 03bd 9cfb d13d d312 5dbd
00000080: e855 2abe ebf4 ea3e dc7f 723e 1c40 383e
00000090: df1b 023e aee0 5abd 5cd2 e9be cf49 983e
000000a0: bf70 c2bd 0cf7 ae3e dab9 26be df23 9cbd
000000b0: 76ce 203e f437 1abe c51e cc3e cd06 5d3e
000000c0: fd0a 74be d206 2ebd aa62 49be c6e2 323e
000000d0: c793 a4be 1193 413e 201a 1cbe 8938 063e
000000e0: e81c 65be 6337 01bd 0832 0b3e e228 923e
000000f0: 88f8 d43d efc5 a13d 2d0f 853e 9922 5cbd
00000100: 6e34 003e 4afb e6be 1e98 0c3e 9df4 f8be
00000110: a310 763c 1e33 e43e 035f 0a3c e429 76bd
00000120: c066 24bd 9c93 c73d c3d6 32bd 59b2 8f3e
00000130: 98c0 0ebe 0b89 dd3c 86ae 4d3e b99b 8abd
00000140: 23d5 263e 8040 76be 3fd3 783d 06be 5bbe
00000150: 04f5 a73e 0b84 86be 109d 403e 1cb1 f13d
00000160: f5e1 90be 4b84 693d c401 bb3e 2bde 9ebe
00000170: 5318 70be f0da a93c 8636 123d d819 9c3a
00000180: 031a b0be b539 47be 525b 41ba 9d2f 12bd
0.06147606 0.21628495 0.19263564 0.31437805 -0.18070193 0.078473665 0.057652406 0.5777468
-0.15786578 0.2765442 -0.24622014 -0.252356 -0.17201051 -0.18735409 -0.26081502 0.12175352
0.15538323 0.30795076 -0.1283158 0.102732405 -0.11378495 0.117168754 0.018376056 -0.0597017
-0.004243071 0.4078293 0.23292871 0.37589818 -0.15725219 -0.032025386 0.10253069 -0.05397303
-0.16634333 0.45889983 0.23681587 0.17993206 0.12705944 -0.053436927 -0.45668304 0.2974381
-0.09494161 0.34172857 -0.16281834 -0.07624029 0.15703759 -0.15060407 0.39867225 0.21584626
-0.23832317 -0.042486973 -0.19666544 0.1746932 -0.32143995 0.18903758 -0.15244341 0.13107504
-0.22374308 -0.03154696 0.13593304 0.28546816 0.10398966 0.07899081 0.2598814 -0.053743932
0.1252 -0.45113593 0.13729903 -0.48624125 0.015018615 0.4457025 0.008445504 -0.060098544
-0.040137053 0.09744951 -0.043661844 0.28065756 -0.13940656 0.027042886 0.20086107 -0.06767983
0.16292243 -0.24048042 0.060748335 -0.21459207 0.3280412 -0.26272616 0.18809915 0.11801359
-0.28297392 0.05701093 0.36524785 -0.31028876 -0.23446779 0.02073428 0.03569653 0.0011909558
-0.34394845 -0.19455607 -0.00073759735 -0.03568994

coefficient1 f4 [100, 1]
00000000: d496 91be 7739 e53d 1ea3 b83d fe41 c23e
00000010: 41d7 dabe ed53 cb3c e372 65be 2e74 c03f
00000020: a50d 82be dc9f c33e becb 45be 3259 74bf
00000030: 015a 09bf 0d95 43be 4f5d 9abd a7a5 823e
00000040: 5e1e af3e 78fd 673e 0000 0080 2bb6 ee3e
00000050: 0269 93be f8e0 b83c d2c3 f0bd c999 b13e
00000060: b860 17be 2941 173e 59bc f03e f639 db3d
00000070: ffbd 83bc 0000 0080 effe c13f 706f 9bbe
00000080: e066 8fbd 75e6 4a3f c7e7 8c3f e539 2e3f
00000090: 1065 9a3d 0000 0000 2660 90be 3268 033f
000000a0: 0000 0080 a682 b73e 0000 0000 0000 0000
000000b0: c430 bf3b 0000 0080 c23b af3e 3f74 21be
000000c0: dce6 a63c 50b5 a7bd 0000 0080 9783 923e
000000d0: 7611 86be 45ff c23c 0000 0080 04ca 3fb9
000000e0: 4b65 febd 7924 8abc d512 1939 c0ae 803e
000000f0: d500 9ec0 70ad b1be 37f7 f23e 0000 0080
00000100: 737b 8b3e ff93 03bf 2030 08bf 9bee eebf
00000110: f836 0339 c559 583f 22c5 fc3c 7a61 cfbc
00000120: 1954 fc3f 2918 1dbc 0000 0000 5280 9f3e
00000130: 545c c3be 96bb 9c3e eb9e 0b3a 83e8 c1be
00000140: 3090 853e 580f 98bc e480 6fbe 0000 0080
00000150: 55a1 ae3d 04f3 32bf 6cd7 7e3e fda0 0f3f
00000160: 50d6 973f a6e6 a83e 2a5c 563e 327f 6fbe
00000170: 512e 1dbe 3535 233d 06cd b93f 2362 b5be
00000180: 7626 c8be edb2 c2be 9543 c23c f265 05bb
-0.28435385 0.11192601 0.09015487 0.37940973 -0.4274235 0.024820292 -0.22407107 1.5035455
-0.25401035 0.382079 -0.19316003 -0.954486 -0.5365296 -0.19099827 -0.075373285 0.25517008
0.34202856 0.22655284 -0.0 0.46623358 -0.28791052 0.022568211 -0.117561 0.3468764
-0.14782989 0.1477095 0.47018698 0.107044145 -0.016081808 -0.0 1.5155925 -0.30358458
-0.07002044 0.792579 1.1008233 0.6805709 0.075388074 0.0 -0.28198355 0.51330864
-0.0 0.35841864 0.0 0.0 0.0058346707 -0.0 0.3422528 -0.15767
0.020373754 -0.081888795 -0.0 0.2861602 -0.26185197 0.023803363 -0.0 -0.00018290436
-0.12421664 -0.016863095 0.00014598233 0.25133324 -4.9376016 -0.34702635 0.47454235 -0.0
0.27242622 -0.513977 -0.5319843 -1.8666567 0.00012513611 0.8451198 0.030855719 -0.025315035
1.9713165 -0.00958828 0.0 0.31152588 -0.38156378 0.30611867 0.000532611 -0.37872705
0.2608657 -0.018562004 -0.23389012 -0.0 0.085268654 -0.6990206 0.24886864 0.56105024
1.1862278 0.3298847 0.20933595 -0.23388365 -0.153497 0.039845664 1.4515693 -0.35426435
-0.39091843 -0.38027135 0.023713866 -0.0020354954
